app/src/main/assets/model.pt (torch, 18937 bytes, 8 tensors)

weight f4 [10, 4]
0.20745209 0.24345697 -0.027803378 -0.61788857 0.49494866 0.5355983 -0.15666805 -0.16620372
0.12999056 -0.29808939 0.66850525 0.4346599 -0.07542543 -0.17576486 0.45568955 0.49372828
-0.0021741057 -3.385041e-08 -0.00059470616 -1.4107438e-08 -0.05084388 0.53011954 -0.20122206 -0.19988605
-0.0140593685 -0.008199116 -0.0229433 -0.010334526 0.22637138 0.29480007 -0.14734066 -0.8240051
-0.17409122 -0.04953072 0.5893384 0.6757034 0.47427848 -0.1753416 -0.056300674 -0.6905123
00000000: 526e 543e c94c 793e e9c3 e3bc f22d 1ebf
00000010: e969 fd3e f81c 093f 976d 20be 4f31 2abe
00000020: 3f1c 053e 2c9f 98be 2923 2b3f be8b de3e
00000030: a678 9abd b4fb 33be 2450 e93e f4c9 fc3e
00000040: 717b 0ebb eb62 11b3 0ee6 1bba 2b5d 72b2
00000050: ac41 50bd eab5 073f 280d 4ebe eeae 4cbe
00000060: 4459 66bc 9655 06bc 96f3 bbbc 2552 29bc
00000070: e6cd 673e 09f0 963e 78e0 16be 00f2 52bf
00000080: f844 32be b9e0 4abd e2de 163f e6fa 2c3f
00000090: a1d4 f23e c08c 33be 899b 66bd 6ac5 30bf

bias f4 [10]
0.3792363 0.4306389 -0.050274886 -0.024715967 -1.0377929e-09 0.15856324 -0.00085558835 0.3016204
-0.1844637 0.30308664
00000000: 432b c23e b47c dc3e 0aed 4dbd 2479 cabc
00000010: 17a2 8eb0 675e 223e 9049 60ba fd6d 9a3e
00000020: 0de4 3cbe 2c2e 9b3e

weight f4 [20, 10]
-1.2164485e-08 2.4877465e-09 -2.7318574e-09 -9.131373e-09 5.1335134e-12 9.664327e-10 4.0376556e-13 9.853059e-09
-1.171885e-08 -9.798478e-09 8.350481e-05 -0.0027152705 -0.0018444627 5.624036e-05 -2.985074e-11 -5.0722556e-05
-8.642312e-13 0.00011553823 0.00033521865 1.14469e-07 -0.06763153 0.18741147 0.2565959 0.07247243
1.5722259e-08 -0.074861355 0.0033794343 -0.31017402 0.51680356 -0.2325309 2.0973039e-05 -0.00014566757
-0.00014927835 -5.4811157e-05 2.2554292e-11 -7.081273e-07 3.4983006e-12 1.4612485e-05 -8.005024e-05 1.3666046e-05
0.051809184 0.30077314 0.53907865 0.33464932 -3.069196e-10 -0.06606714 -9.7887046e-08 -0.0657944
0.36326107 0.10575127 -7.014519e-08 -2.6105116e-07 -3.2657297e-07 3.3973487e-07 -2.0441656e-13 7.924269e-08
-2.649624e-09 9.104303e-08 4.3409014e-07 -5.092533e-08 0.17122416 0.31668428 0.26518816 0.053185735
3.5894725e-09 0.010093743 1.8178586e-08 0.14902504 0.06075265 0.17068525 2.3591855e-07 -0.0027833788
-0.0028452293 -6.510267e-05 1.9291135e-10 -4.2358764e-08 3.8618024e-09 -6.695544e-08 -0.00019351685 3.8118998e-08
0.18752481 0.14950058 -0.06423485 -0.10930658 -3.1498402e-09 0.079146 -0.0019224109 0.24886338
-0.14166233 0.17458655 0.17170621 0.14143994 -0.06427675 -0.081861615 -9.853855e-09 0.07331116
-0.0014884096 0.2339518 -0.14610015 0.17946108 1.1225471e-06 -7.0065374e-07 -9.628113e-07 1.4983165e-06
8.903295e-13 -3.79298e-08 3.675526e-12 -6.3766925e-07 1.3736658e-06 1.2674756e-06 0.3844394 0.3837634
-0.21977781 -0.09561782 -1.1573196e-08 0.23013628 -0.009266284 0.5639212 -0.35009977 0.24274607
0.39980534 0.34348792 -0.16841964 -0.19630857 -3.2725084e-06 0.2221816 -0.008868877 0.7507737
-0.36783063 0.39040917 -0.07374957 0.0591828 0.24485363 0.21453685 -7.0472645e-09 -0.057927117
1.8838047e-05 -0.12329046 0.20097929 -0.03129533 0.012566985 0.029054314 0.033978857 0.016856475
-2.7737618e-10 -8.506674e-05 2.2742329e-08 0.009615276 0.019143054 0.017436951 -0.080157526 0.0041723205
0.3523732 0.30274874 -5.7589027e-09 -0.041218676 0.0016450593 -0.16310842 0.31188485 -0.014874126
0.4012877 0.25144994 -0.21017402 -0.18553804 -5.6469794e-08 0.20269133 -0.0040794457 0.5781739
-0.17154343 0.39812577 -4.7889475e-09 -5.8160033e-08 2.3177094e-08 2.5967615e-09 -1.8851153e-11 5.043242e-10
7.217016e-12 2.9877885e-09 -2.2019936e-08 2.6771257e-08 -7.964278e-06 -4.8994843e-05 -4.5253528e-05 -1.8010787e-06
-7.4552636e-13 -9.965531e-07 -7.9963224e-11 4.0996213e-07 8.330877e-06 4.499654e-06 0.19301443 0.3871266
-0.18690202 -0.15943995 -8.281979e-09 0.14883201 -0.0052408683 0.39761952 -0.21405475 0.18025367
00000000: f9fb 50b2 e6f4 2a31 58bb 3bb1 34e0 1cb2
00000010: 949e b42c 54d3 8430 c04c e32a 3646 2932
00000020: 0c54 49b2 2956 28b2 4e1f af38 aef2 31bb
00000030: e6c1 f1ba a0e3 6b38 f248 03ae eebe 54b8
00000040: 6c42 73ab 1d4d f238 49c0 af39 00d2 f533
00000050: 6682 8abd cbe8 3f3e 8a60 833e 6d6c 943d
00000060: 9d0d 8732 e950 99bd 8079 5d3b 21cf 9ebe
00000070: 3d4d 043f 951c 6ebe 42ef af37 57be 18b9
00000080: 9a87 1cb9 08e5 65b8 c063 c62d 2316 3eb5
00000090: c82b 762c 2528 7537 a5e0 a7b8 3847 6537
000000a0: de35 543d f0fe 993e 0f01 0a3f 2857 ab3e
000000b0: 18bb a8af 354e 87bd f935 d2b3 37bf 86bd
000000c0: 5bfd b93e 1f94 d83d baa2 96b3 9926 8cb4
000000d0: d953 afb4 ce64 b634 1027 66aa 212c aa33
000000e0: ae14 36b1 6f83 c333 e50c e934 feb8 5ab3
000000f0: 6355 2f3e 7124 a23e bec6 873e 49d9 593d
00000100: abaa 7631 3a60 253c 2227 9c32 059a 183e
00000110: c5d7 783d 1dc8 2e3e cc50 7d34 5969 36bb
00000120: 0777 3abb bb87 88b8 b81b 542f f4ed 35b3
00000130: c6b0 8431 24c9 8fb3 c9ea 4ab9 48b8 2333
00000140: 8106 403e ae16 193e 908d 83bd 21dc dfbd
00000150: 9374 58b1 4c17 a23d 68f9 fbba 0bd6 7e3e
00000160: ee0f 11be d1c6 323e c1d3 2f3e a2d5 103e
00000170: 87a3 83bd 10a7 a7bd b649 29b2 2924 963d
00000180: bd16 c3ba 1091 6f3e 479b 15be a5c4 373e
00000190: 6daa 9635 8f14 3cb5 f239 81b5 c319 c935
000001a0: 009b 7a2b 42e8 22b3 3252 812c 4c2c 2bb5
000001b0: cc5e b835 211e aa35 3ed5 c43e a37c c43e
000001c0: 6f0d 61be 47d3 c3bd 74d3 46b2 d8a8 6b3e
000001d0: 9dd1 17bc 245d 103f 4740 b3be 6d92 783e
000001e0: 49b3 cc3e a6dd af3e 3376 2cbe 1d05 49be
000001f0: 449d 5bb6 9383 633e c44e 11bc b532 403f
00000200: 4c54 bcbe b6e3 c73e 040a 97bd aa69 723d
00000210: e9ba 7a3e 8caf 5b3e 6524 f2b1 fc44 6dbd
00000220: 6606 9e37 b57f fcbd 84cd 4d3e 882f 00bd
00000230: c1e5 4d3c 5003 ee3c 6a2d 0b3d 9716 8a3c
00000240: 3a7d 98af dc65 b2b8 e95a c332 6489 1d3c
00000250: e5d1 9c3c f0d7 8e3c a129 a4bd f6b7 883b
00000260: 436a b43e e201 9b3e d8df c5b1 ead4 28bd
00000270: 089f d73a e505 27be 5faf 9f3e 9bb2 73bc
00000280: 9575 cd3e 0cbe 803e dc37 57be affd 3dbe
00000290: 3289 72b3 518e 4f3e dfac 85bb 3403 143f
000002a0: 15a9 2fbe 24d7 cb3e 078c a4b1 a2cb 79b3
000002b0: f816 c732 b672 3231 06d1 a5ad a9a0 0a30
000002c0: 1aed fd2c bb51 4d31 5a26 bdb2 9ef6 e532
000002d0: 509e 05b7 d07f 4db8 9bce 3db8 98bc f1b5
000002e0: d6d8 51ab 4ec1 85b5 4bd7 afae c418 dc34
000002f0: d8c4 0b37 bcfb 9636 93a5 453e 7535 c63e
00000300: 3e63 3fbe 3a44 23be 8748 0eb2 6b67 183e
00000310: 97bb abbb c994 cb3e 2b31 5bbe 6b94 383e

bias f4 [20]
7.5471585e-09 0.00015764388 0.03037991 4.6098172e-05 0.06937064 -7.260036e-08 0.10837421 -1.8818257e-07
0.11279805 0.10560715 -5.0798803e-07 0.23679738 0.36033085 -0.0132637555 0.013885554 0.01066115
0.27250367 1.0952424e-08 -2.0428297e-06 0.103574194
00000000: c1a8 0132 354d 2539 4adf f83c 8959 4138
00000010: 3212 8e3d 78e8 9bb3 4cf3 dd3d 3b0f 4ab4
00000020: aa02 e73d 9048 d83d ac5c 08b5 037b 723e
00000030: 497d b83e 3950 59bc 3c80 633c 1bac 2e3c
00000040: 9a85 8b3e 4529 3c32 8c17 09b6 b51e d43d

weight f4 [10, 20]
1.1112422e-08 -0.023896324 0.3464258 5.81952e-05 0.23019926 -4.0673677e-07 -0.113719024 0.0097153485
-0.17047524 -0.15883611 -2.0104599e-07 -0.45944908 -0.5540793 0.070045434 0.040838502 0.20369357
-0.36572254 -2.7483988e-09 -0.00010166763 -0.29066357 -8.408072e-09 -0.00024252273 0.40480494 2.8224167e-07
0.5780659 1.4226855e-07 0.35733867 2.979021e-05 -0.027187372 -0.020503102 -1.6052105e-06 -0.13136043
-0.18268922 0.2800439 0.079879135 0.39272177 -0.096017085 4.2920498e-10 1.0134395e-05 -0.07210547
4.260452e-09 0.00018180108 0.30044097 -2.18361e-05 0.39104143 1.2329905e-07 0.24617638 3.2477803e-07
-0.023838727 -0.020381695 1.1527533e-07 -0.08936109 -0.10588622 0.23254092 0.04433463 0.28270054
-0.067406334 3.7496067e-10 1.144774e-05 -0.056157235 -5.236556e-12 -1.1139434e-09 -1.5047393e-06 1.2989507e-10
-8.5833545e-07 1.1015417e-12 -1.0495927e-06 1.0414941e-13 2.1125813e-06 -2.1740553e-07 4.4907602e-11 -6.519936e-07
7.178044e-07 -1.2407954e-06 -1.2679463e-07 -1.0133795e-06 -1.1939377e-07 8.093103e-12 1.7857448e-11 -1.1921067e-06
5.477278e-09 0.0139386915 -0.14858189 -5.2264622e-05 0.03841535 7.122988e-07 0.2467981 -0.0062408843
0.2630295 0.24911545 2.8243421e-06 0.6316471 0.76137817 -0.15040667 0.05368238 -0.19365901
0.642938 -7.878043e-09 -4.0360843e-05 0.45899278 -4.37674e-10 2.1851925e-07 -0.040712282 -7.340449e-07
-0.06265982 -9.601139e-09 -0.017239427 -4.5181772e-10 0.024192132 0.023969091 1.2539363e-07 0.053528443
0.059385613 -0.028207539 0.0048453957 -0.039589737 0.04781692 -1.4072304e-11 -1.7326838e-07 0.040538605
5.6999943e-12 6.1310475e-12 4.580538e-09 4.9062317e-14 7.926626e-11 9.559439e-13 1.7704638e-09 7.758471e-12
-1.03518175e-11 2.266658e-12 4.8868366e-12 3.5160815e-12 3.1159992e-09 1.3007462e-09 8.8501385e-12 -1.3285279e-11
5.1801068e-12 -7.0372037e-12 -7.389531e-12 8.113266e-12 1.2051725e-12 4.19067e-12 1.4795686e-10 -8.426777e-13
-2.7393025e-06 1.4472604e-11 -3.8219987e-09 -8.891418e-12 3.0137823e-11 -1.2779529e-10 7.371429e-12 4.850769e-11
1.3145016e-10 -5.1213783e-10 5.6849216e-11 2.092348e-10 -1.13336646e-10 2.7195438e-12 -1.0590438e-12 -1.6036452e-11
1.1743152e-08 0.01257465 -0.238861 -4.7450936e-05 0.24179675 3.5600078e-07 0.12496275 -0.0057666884
0.18762252 0.17562068 -1.8108008e-06 0.4030926 0.5887552 -2.4796056e-05 0.036449265 -0.10232271
0.4624381 -7.621906e-09 6.953825e-05 0.26077154 6.4329726e-13 -2.5515503e-12 -2.5319262e-06 -1.0876019e-11
-3.4560826e-06 -5.9169254e-12 -2.2375284e-06 7.030524e-12 -3.8144249e-06 -3.7800673e-06 7.181096e-13 -3.0444228e-06
-2.983759e-06 -1.5742644e-06 -5.8597716e-06 -4.9259383e-05 -2.983962e-06 -1.3575531e-12 3.174938e-12 -9.553519e-07
00000000: f3e8 3e32 39c2 c3bc b95e b13e 9f16 7438
00000010: 5bb9 6b3e 7a5d dab4 85e5 e8bd 202d 1f3c
00000020: 1091 2ebe efa5 22be 1adf 57b4 e93c ebbe
00000030: 24d8 0dbf fb73 8f3d 4646 273d 0c95 503e
00000040: fc3f bbbe 58de 3cb1 6536 d5b8 dbd1 94be
00000050: 1773 10b2 b34d 7eb9 9842 cf3e 0087 9734
00000060: 20fc 133f 7bc2 1834 18f5 b63e fde5 f937
00000070: 0db8 debc 1ff6 a7bc 9d72 d7b5 5983 06be
00000080: e212 3bbe ea61 8f3e ac97 a33d d412 c93e
00000090: 9ba4 c4bd 3bf5 eb2f e506 2a37 08ac 93bd
000000a0: 5563 9231 dba1 3e39 66d3 993e ab2c b7b7
000000b0: 9536 c83e 2f64 0434 a915 7c3e 275d ae34
000000c0: 6f49 c3bc 83f7 a6bc 488d f733 f202 b7bd
000000d0: e0da d8bd 351f 6e3e 3b98 353d 20be 903e
000000e0: 550c 8abd 0623 ce2f ab0f 4037 2105 66bd
000000f0: b43e b8ac 6619 99b0 73f6 c9b5 36d2 0e2f
00000100: 5d68 66b5 3907 9b2b bbdf 8cb5 0c86 ea29
00000110: dfc5 0d36 fa6f 69b4 7781 452e a904 2fb5
00000120: 25af 4035 6889 a6b5 0b25 08b4 7403 88b5
00000130: b632 00b4 1860 0e2d 6613 9d2d 7900 a0b5
00000140: a632 bc31 1c5f 643c da25 18be b636 5bb8
00000150: 6a59 1d3d cd34 3f35 a4b8 7c3e 5580 ccbb
00000160: cdab 863e 1f18 7f3e d489 3d36 a0b3 213f
00000170: aee9 423f 3504 1abe 0ee2 5b3d 8c4e 46be
00000180: 9697 243f 0058 07b2 2049 29b8 1a01 eb3e
00000190: 249d f0af 1da2 6a34 ecc1 26bd 2e0b 45b5
000001a0: cb53 80bd 42f2 24b2 b339 8dbc b163 f8af
000001b0: 942e c63c d45a c43c f0a3 0634 a440 5b3d
000001c0: 543e 733d 7f13 e7bc 20c6 9e3b d928 22bd
000001d0: addb 433d 0690 77ad a60b 3ab4 cf0b 263d
000001e0: fc8c c82c 91b7 d72c d762 9d31 00f5 5c29
000001f0: f04e ae2e 8289 862b a854 f330 0c7d 082d
00000200: 711c 36ad 7b80 1f2c b6f0 ab2c 186c 772c
00000210: 3d21 5631 f0c5 b230 7bb1 1b2d 94b7 69ad
00000220: 4142 b62c 7f99 f7ac 7dff 01ad e7ba 0e2d
00000230: ea9c a92b 3372 932c 27ae 222f 5431 6dab
00000240: dcd4 37b6 d09a 7e2d a852 83b1 636b 1cad
00000250: 2c8c 042e 2d83 0caf f7ad 012d ce56 552e
00000260: ee87 102f 7fc6 0cb0 8706 7a2e 5c0e 662f
00000270: dc3a f9ae f25e 3f2c 130c 95ab e10e 8dad
00000280: eebe 4932 e805 4e3c fa97 74be 0e06 47b8
00000290: 9199 773e 6020 bf34 78ec ff3d 7df6 bcbb
000002a0: 1e20 403e e8d5 333e a40a f3b5 2762 ce3e
000002b0: a9b8 163f 2001 d0b7 d34b 153d 928e d1bd
000002c0: b0c4 ec3e 7ff1 02b2 10d5 9138 d983 853e
000002d0: 7412 352b a58c 33ac 29ea 29b6 3c55 3fad
000002e0: 0cef 67b6 ed2e d0ac 7228 16b6 555d f72c
000002f0: 52fb 7fb6 10ad 7db6 4021 4a2b c94e 4cb6
00000300: 973c 48b6 504b d3b5 0e9f c4b6 dc9b 4eb8
00000310: 1440 48b6 010f bfab 996a 5f2c a439 80b5

bias f4 [10]
-0.11286329 0.0671506 0.062172662 -3.306102e-07 0.2719827 0.0023510195 -4.0203255e-07 1.2393248e-10
0.15567195 -9.610397e-07
00000000: de24 e7bd 4186 893d c3a8 7e3d b87e b1b4
00000010: 5141 8b3e 9013 1a3b efd6 d7b4 e443 082f
00000020: 7868 1f3e 13fd 80b5

weight f4 [3, 10]
-0.0016716834 -0.9232499 -0.6795497 -8.7394295e-07 0.7436142 0.0625348 6.1857277e-12 -1.3766235e-11
0.36778808 -5.380856e-07 -0.50356823 0.09595551 0.08917825 -1.893481e-06 0.26878133 -0.061496723
2.5738535e-12 -7.125302e-05 0.3949031 9.444275e-06 0.736301 0.33308175 0.2044639 6.5055644e-08
-0.75485265 -0.0006061153 2.2247927e-11 7.5297125e-05 -0.57491547 -2.6064572e-06
00000000: 631c dbba 1b5a 6cbf f8f6 2dbf e798 6ab5
00000010: 805d 3e3f 3f12 803d 15a4 d92c 9c2d 72ad
00000020: b84e bc3e f670 10b5 d9e9 00bf 5384 c43d
00000030: 16a3 b63d 8323 feb5 b59d 893e fde3 7bbd
00000040: 6c1e 352c ad6d 95b8 bd30 ca3e da72 1e37
00000050: 397e 3c3f b189 aa3e fc5e 513e b8b4 8b33
00000060: 063e 41bf b6e3 1eba e1b1 c32d d6e8 9d38
00000070: a92d 13bf 98ea 2eb6

bias f4 [3]
0.090545416 0.21642701 -0.11472209
00000000: e06f b93d 0b9f 5d3e 6af3 eabd
